…
on_count":25},{"cell_type":"code","source":"# Get the number of classes\nnum_classes = len(class_names)\n\n# Instantiate the CNN model\nmodel = PotatoCNN(num_classes).to(device)\n\nmodel","metadata":{"trusted":true,"execution":{"iopub.status.busy":"2025-04-06T12:53:35.988325Z","iopub.execute_input":"2025-04-06T12:53:35.988690Z","iopub.status.idle":"2025-04-06T12:53:36.515929Z","shell.execute_reply.started":"2025-04-06T12:53:35.988638Z","shell.execute_reply":"2025-04-06T12:53:36.514990Z"}},"outputs":[{"execution_count":26,"output_type":"execute_result","data":{"text/plain":"PotatoCNN(\n  (conv1): Conv2d(3, 32, kernel_size=(3, 3), stride=(1, 1), padding=(1, 1))\n  (bn1): BatchNorm2d(32, eps=1e-05, momentum=0.1, affine=True, track_running_stats=True)\n  (pool1): MaxPool2d(kernel_size=2, stride=2, padding=0, dilation=1, ceil_mode=False)\n  (conv2): Conv2d(32, 64, kernel_size=(3, 3), stride=(1, 1), padding=(1, 1))\n  (bn2): BatchNorm2d(64, eps=1e-05, momentum=0.1, affine=True, track_running_stats=True)\n  (pool2): MaxPool2d(kernel_size=2, stride=2, padding=0, dilation=1, ceil_mode=False)\n  (conv3): Conv2d(64, 128, kernel_size=(3, 3), stride=(1, 1), padding=(1, 1))\n  (bn3): BatchNorm2d(128, eps=1e-05, momentum=0.1, affine=True, track_running_stats=True)\n  (pool3): MaxPool2d(kernel_size=2, stride=2, padding=0, dilation=1, ceil_mode=False)\n  (fc1): Linear(in_features=100352, out_features=512, bias=True)\n  (dropout1): Dropout(p=0.5, inplace=False)\n  (fc2): Linear(in_features=512, out_features=256, bias=True)\n  (dropout2): Dropout(p=0.5, inplace=False)\n  (fc3): Linear(in_features=256, out_features=7, bias=True)\n)"},"metadata":{}}],"execution_count":26},{"cell_type":"code","source":"import torch.optim as optim\n\n# Define loss function and optimizer\ncriterion = nn.CrossEntropyLoss().to(device)\noptimizer = optim.Adam(model.parameters(), lr=0.001)\n","metadata":{"trusted":true,"execution":{"iopub.status.busy":"2025-04-06T12:53:39.315245Z","iopub.execute_input":
…
"code","source":"# Get the number of classes\nnum_classes = len(class_names)\n\n# Instantiate the CNN model\nmodel = PotatoCNNv2(num_classes).to(device)\n\nmodel","metadata":{"trusted":true,"execution":{"iopub.status.busy":"2025-04-06T10:11:45.520707Z","iopub.execute_input":"2025-04-06T10:11:45.521063Z","iopub.status.idle":"2025-04-06T10:11:45.545498Z","shell.execute_reply.started":"2025-04-06T10:11:45.521037Z","shell.execute_reply":"2025-04-06T10:11:45.544811Z"}},"outputs":[{"execution_count":30,"output_type":"execute_result","data":{"text/plain":"PotatoCNNv2(\n  (layer1): Sequential(\n    (0): Conv2d(3, 32, kernel_size=(3, 3), stride=(1, 1), padding=(1, 1))\n    (1): BatchNorm2d(32, eps=1e-05, momentum=0.1, affine=True, track_running_stats=True)\n    (2): ReLU(inplace=True)\n    (3): Conv2d(32, 32, kernel_size=(3, 3), stride=(1, 1), padding=(1, 1))\n    (4): BatchNorm2d(32, eps=1e-05, momentum=0.1, affine=True, track_running_stats=True)\n    (5): ReLU(inplace=True)\n    (6): MaxPool2d(kernel_size=2, stride=2, padding=0, dilation=1, ceil_mode=False)\n  )\n  (layer2): Sequential(\n    (0): Conv2d(32, 64, kernel_size=(3, 3), stride=(1, 1), padding=(1, 1))\n    (1): BatchNorm2d(64, eps=1e-05, momentum=0.1, affine=True, track_running_stats=True)\n    (2): ReLU(inplace=True)\n    (3): Conv2d(64, 64, kernel_size=(3, 3), stride=(1, 1), padding=(1, 1))\n    (4): BatchNorm2d(64, eps=1e-05, momentum=0.1, affine=True, track_running_stats=True)\n    (5): ReLU(inplace=True)\n    (6): MaxPool2d(kernel_size=2, stride=2, padding=0, dilation=1, ceil_mode=False)\n  )\n  (layer3): Sequential(\n    (0): Conv2d(64, 128, kernel_size=(3, 3), stride=(1, 1), padding=(1, 1))\n    (1): BatchNorm2d(128, eps=1e-05, momentum=0.1, affine=True, track_running_stats=True)\n    (2): ReLU(inplace=True)\n    (3): Conv2d(128, 128, kernel_size=(3, 3), stride=(1, 1), padding=(1, 1))\n    (4): BatchNorm2d(128, eps=1e-05, momentum=0.1, affine=True, track_running_stats=True)\n    (5): ReLU(inplace=True)\n    (6): MaxPool2d(kernel_size=2, stride=2, padding=0, dilation=1, ceil_mode=False)\n  )\n  (layer4): Sequential(\n    (0): Conv2d(128, 256, kernel_size=(3, 3), stride=(1, 1), padding=(1, 1))\n    (1): BatchNorm2d(256, eps=1e-05, momentum=0.1, affine=True, track_running_stats=True)\n    (2): ReLU(inplace=True)\n    (3): Conv2d(256, 256, kernel_size=(3, 3), stride=(1, 1), padding=(1, 1))\n    (4): BatchNorm2d(256, eps=1e-05, momentum=0.1, affine=True, track_running_stats=True)\n    (5): ReLU(inplace=True)\n    (6): MaxPool2d(kernel_size=2, stride=2, padding=0, dilation=1, ceil_mode=False)\n  )\n  (gap): AdaptiveAvgPool2d(output_size=1)\n  (fc): Sequential(\n    (0): Flatten(start_dim=1, end_dim=-1)\n    (1): Linear(in_features=256, out_features=128, bias=True)\n    (2): ReLU()\n    (3): Dropout(p=0.5, inplace=False)\n    (4): Linear(in_features=128, out_features=7, bias=True)\n  )\n)"},"metadata":{}}],"execution_count":30},{"cell_type":"code","source":"import torch.optim as optim\n\n# Define loss function and optimizer\ncriterion = nn.CrossEntropyLoss().to(device)\noptimizer = optim.Adam(model.parameters(), lr=0.001)","metadata":{"trusted":true,"execution":{"iopub.status.busy":"2025-04-06T10:11:48.476577Z","iopub.execute_inpu
…
